lenet_mnist.pth (torch, 180919 bytes, 10 tensors)

conv1.weight f4 [6, 1, 5, 5]
-0.13523862 0.035178736 -0.3152338 -0.24109739 -0.14902161 -0.15788005 -0.33248693 -0.2579657
-0.105882786 -0.09095849 0.019616961 -0.34162545 -0.092449084 -0.3254373 -0.38938522 -0.10646736
-0.08528808 -0.31532383 -0.22513506 -0.26250172 0.28196138 0.0998785 0.07299857 -0.25040758
-0.3414793 0.095182925 0.31805992 -0.016039109 0.18262412 0.22108406 -0.09867004 -0.25336957
0.01673627 -0.098543316 -0.3073841 -0.28968388 -0.09604676 -0.25812098 -0.11121325 -0.38540375
-0.118185 -0.34502462 -0.30614084 -0.2119565 -0.1883326 -0.070056826 -0.033331327 -0.09992576
-0.2319162 -0.047186054 0.14646886 -0.124510646 0.001605828 0.13018626 -0.09642436 0.10647473
0.07707926 -0.15744403 -0.033313468 -0.030531384 -0.24277538 -0.2482071 -0.16147608 0.054585006
-0.2557113 -0.17975019 -0.16693416 -0.21950942 -0.09321712 0.035637494 -0.19478033 -0.19706856
-0.19848993 -0.057723 -0.26970258 0.22305772 -0.031772904 -0.077306055 0.016842315 -0.20977886
0.28732193 0.5280533 0.46464112 -0.08649236 -0.37841368 -0.038483758 -0.04310162 0.44901547
0.14368835 -0.19468571 -0.43086046 -0.13616249 0.38342327 0.28977558 0.23391491 -0.24143825
-0.29995394 -0.04157664 0.32512137 0.34820178 0.035581846 0.2988745 -0.05487991 -0.15753025
-0.22798486 0.28132707 0.31372434 0.041958656 -0.22092794 -0.44598833 -0.0336008 0.39310992
0.14146215 -0.101684175 -0.5635155 0.1191447 0.42028686 0.23152244 -0.38542387 -0.37706414
0.17339072 0.27308726 0.27598795 0.0805858 -0.05227099 0.23252785 0.13953426 0.50347316
0.62331295 0.46807587 0.035949335 0.09854938 0.14028081 0.3798009 0.58827996 -0.22768348
-0.097200766 -0.114254355 -0.09894221 0.02829951 -0.2792672 -0.4039511 -0.33898962 -0.24864313
0.019731764 -0.36568987 -0.26035836 -0.36528185 -0.23145777 0.0098178815
00000000: fe7b 0abe 9417 103d 5366 a1be 3ce2 76be
00000010: 1f99 18be 4fab 21be ba3b aabe 1514 84be
00000020: 13d9 d8bd 7248 babd c0b3 a03c 88e9 aebe
00000030: f255 bdbd b89f a6be 805d c7be 8f0b dabd
00000040: 84ab aebd 2072 a1be ce89 66be a066 86be
00000050: 3e5d 903e 198d cc3d 4680 953d 6c35 80be
00000060: 60d6 aebe 44ef c23d c0d8 a23e 7364 83bc
00000070: d101 3b3e dc63 623e 8513 cabd a8b9 81be
00000080: 811a 893c 14d1 c9bd 7361 9dbe 7251 94be
00000090: 2ab4 c4bd 6f28 84be c6c3 e3bd a453 c5be
000000a0: fa0a f2bd 11a7 b0be 7ebe 9cbe 200b 59be
000000b0: 43da 40be f479 8fbd 6e86 08bd e0a5 ccbd
000000c0: 717b 6dbe 2a46 41bd effb 153e 70ff febd
000000d0: a57a d23a 8c4f 053e 237a c5bd 6c0f da3d
000000e0: bbdb 9d3d 0239 21be b473 08bd f41c fabc
000000f0: 1c9a 78be 012a 7ebe fc59 25be 8794 5f3d
00000100: 97ec 82be 6f10 38be caf0 2abe 14c7 60be
00000110: 9ee8 bebd 9ff8 113d 7f74 47be 57cc 49be
00000120: f240 4bbe f46e 6cbd 7516 8abe 3e69 643e
00000130: 4e24 02bd a352 9ebd e5f8 893c 45d0 56be
00000140: dc1b 933e 802e 073f 71e5 ed3e e822 b1bd
00000150: 70bf c1be 25a1 1dbd 538b 30bd 5be5 e53e
00000160: 0a23 133e b15b 47be be99 dcbe 2e6e 0bbe
00000170: 0e50 c43e 775d 943e 6487 6f3e 973b 77be
00000180: 9093 99be 444c 2abd 4f76 a63e 8147 b23e
00000190: 45be 113d 1406 993e c2c9 60bd 9c4f 21be
000001a0: dd74 69be 1a0a 903e 7aa0 a03e d7dc 2b3d
000001b0: ef3a 62be 9558 e4be fea0 09bd b445 c93e
000001c0: 74db 103e cb3f d0bd 8d42 10bf 2302 f43d
000001d0: d72f d73e 3814 6d3e 4756 c5be 8d0e c1be
000001e0: 568d 313e 18d2 8b3e 4b4e 8d3e 2b0a a53d
000001f0: 1b1a 56bd c81b 6e3e 12e2 0e3e 9ee3 003f
00000200: 7091 1f3f a4a7 ef3e 9c3f 133d 42d4 c93d
00000210: c6a5 0f3e 4375 c23e 8499 163f dc25 69be
00000220: 3211 c7bd 30fe e9bd 37a2 cabd 60d4 e73c
00000230: 1cfc 8ebe aed2 cebe 0c90 adbe 4e9c 7ebe
00000240: 82a4 a13c b43b bbbe b14d 85be 3906 bbbe
00000250: 4403 6dbe 2edb 203c

conv1.bias f4 [6]
-0.0661418 0.2231077 0.19858263 0.27811962 0.43971413 0.23813392
00000000: 5a75 87bd 5876 643e 3f59 4b3e b265 8e3e
00000010: 3622 e13e 61d9 733e

conv2.weight f4 [16, 6, 5, 5]
0.10500586 0.1242747 -0.0671346 0.022738216 0.06468718 -0.016822163 -0.06625688 -0.09768976
-0.048503365 -0.032682855 -0.024762036 -0.07645427 -0.09980173 0.042213056 -0.037986316 0.017832665
-0.06024373 -0.0883027 -0.010387748 0.056799036 -0.018064167 0.040593922 -0.05829864 0.06820495
0.056009978 -0.029068163 0.022721047 -0.08736732 -0.11484565 -0.046205807 0.04241588 0.01967959
-0.15027188 -0.12799338 0.026474798 0.08331677 0.00024541406 -0.050580468 -0.06772723 0.07023955
0.12028835 -0.051892444 -0.12707283 -0.0074343667 -0.026289595 -0.03035965 0.023452036 -0.08780085
0.067873135 -0.015551437 -0.042480364 0.0018071177 -0.071010664 -0.00959943 0.015994791 0.01849459
-0.0330297 -0.11626104 -0.15768702 -0.020809082 0.050107513 0.03806127 -0.01728661 -0.12577504
0.006048075 0.05032275 0.030185122 0.01967539 0.004020011 -0.01405681 0.07636502 -0.06388572
-0.016385011 0.06478145 0.034170926 -0.07453265 0.042804886 0.03838297 -0.021935826 -0.09442196
-0.032748014 0.05179064 0.12343402 -0.011313084 -0.035176106 0.08396369 0.09680011 0.0033830956
-0.017547961 -0.10096052 -0.0503084 0.007543396 0.048517466 0.023230674 0.041200254 -0.0651805
-0.08855335 -0.033537015 -0.026122084 0.040979344 0.01575978 -0.011495154 0.1177341 0.095940165
0.08088555 -0.06388456 -0.06172561 0.06056476 0.1870203 0.083832145 -0.13711898 -0.1264796
0.1568882 0.2109759 0.028862445 -0.11350255 -0.030336307 0.04500946 0.14172426 -0.03629262
-0.11921466 -0.03083276 0.11977156 0.084717795 -0.03756376 0.0065992004 -0.025037177 0.06282628
-0.061512526 -0.11429199 0.044436388 0.13105279 0.10525485 0.003165474 -0.09623201 0.033081055
0.18277554 0.015932554 -0.012341605 0.0047915815 -0.06159309 0.12441115 -0.0116206845 -0.081201546
-0.070084624 -0.099975996 0.073585115 0.08412927 -0.05286233 -0.07138818 0.021381194 -0.17533053
-0.17585067 -0.09321458 0.079698 -0.024613583 -0.17827661 -0.10831044 -0.079603344 0.008566727
-0.044875793 -0.14704865 -0.0380815 0.062325455 0.0083000185 0.11521841 -0.008928609 0.026796637
0.106410556 0.035251837 0.050685234 -0.053677928 -0.06858138 -0.0010012347 0.048979204 -0.00018031361
-0.06821487 -0.19234483 -0.039587814 0.031628456 -0.1279307 -0.1712103 -0.09076519 0.06294281
0.053223547 -0.014327434 -0.019184006 0.031525087 0.08720405 0.03899646 0.059957698 -0.02420704
-0.02238163 0.06595876 0.023742171 0.034477327 -0.03457775 0.04153163 0.1053998 0.023044676
0.026577704 -0.08524772 -0.120714195 -0.034709923 -0.040606655 -0.056842398 -0.16039746 -0.039221182
0.038885236 0.11692364 -0.020310462 0.0073525254 0.059427164 0.10581301 0.013388607 0.08627017
0.046645902 -0.056746922 -0.010981137 0.07182207 -0.032864343 0.0276495 0.0397219 0.09333233
-0.006147321 0.038498063 -0.018123476 -0.008499855 0.019776046 0.11828736 0.024010623 -0.14411668
-0.03406309 0.018997356 -0.054324064 0.04142336 0.09109186 -0.0023455925 0.07071543 -0.05652206
0.16079013 0.21903668 0.12156257 -0.0015358048 -0.061703272 0.14167129 0.04106579 0.02457922
0.054321487 -0.046338595 -0.1211379 0.056290835 0.11533093 0.0767991 0.10462819 -0.03264515
00000000: 500d d73d bc83 fe3d dd7d 89bd 7f45 ba3c
00000010: b67a 843d a2ce 89bc b0b1 87bd 9211 c8bd
00000020: 77ab 46bd 75de 05bd c1d9 cabc 0e94 9cbd
00000030: d964 ccbd 99e7 2c3d 8a97 1bbd cf15 923c
00000040: 21c2 76bd 0cd8 b4bd 5f31 2abc 1ba6 683d
00000050: 4efb 93bc d045 263d 8eca 6ebd 09af 8b3d
00000060: b86a 653d 5b20 eebc 7d21 ba3c a3ed b2bd
00000070: 3234 ebbd 4d42 3dbd 46bc 2d3d 1737 a13c
00000080: dfe0 19be b210 03be ade1 d83c fca1 aa3d
00000090: ebaa 8039 772d 4fbd 93b4 8abd c1d9 8f3d
000000a0: bd59 f63d 2c8d 54bd 611f 02be fd9b f3bb
000000b0: 475d d7bc cdb4 f8bc 7c1e c03c efd0 b3bd
000000c0: 1201 8b3d 74cb 7ebc e4ff 2dbd cfdc ec3a
000000d0: 0a6e 91bd ed46 1dbc 8207 833c f781 973c
000000e0: 274a 07bd 451a eebd b578 21be cf77 aabc
000000f0: 893d 4d3d 22e6 1b3d a69c 8dbc 2ccb 00be
00000100: ee2e c63b 3a1f 4e3d ca46 f73c 492e a13c
00000110: 4cba 833b 894e 66bc 4365 9c3d 84d6 82bd
00000120: dc39 86bc 23ac 843d d0f6 0b3d 93a4 98bd
00000130: 2d54 2f3d 7637 1d3d c3b2 b3bc 4d60 c1bd
00000140: c822 06bd 6c22 543d faca fc3d 835a 39bc
00000150: d214 10bd 28f5 ab3d 233f c63d edb6 5d3b
00000160: bec0 8fbc 64c4 cebd 2e10 4ebd 982e f73b
00000170: 40ba 463d 414e be3c 99c1 283d 5b7d 85bd
00000180: 755b b5bd 1c5e 09bd fbfd d5bc f5d9 273d
00000190: a71a 813c 2c56 3cbc 931e f13d 477c c43d
000001a0: 53a7 a53d e8d5 82bd fed3 7cbd c112 783d
000001b0: 4082 3f3e 30b0 ab3d eb68 0cbe de83 01be
000001c0: 4da7 203e 110a 583e ef70 ec3c 0674 e8bd
000001d0: d983 f8bc d75b 383d 2a20 113e 92a7 14bd
000001e0: d126 f4bd fc94 fcbc cb4a f53d 8680 ad3d
000001f0: 75dc 19bd 1b3e d83b c41a cdbc 11ab 803d
00000200: 8ff4 7bbd eb11 eabd ee02 363d b432 063e
00000210: db8f d73d d773 4f3b 4a15 c5bd 0080 073d
00000220: 8329 3b3e fd84 823c 7134 4abc b302 9d3b
00000230: 0949 7cbd 46cb fe3d af64 3ebc ff4c a6bd
00000240: 8788 8fbd 37c0 ccbd cbb3 963d f74b ac3d
00000250: 2c86 58bd f733 92bd 9d27 af3c d989 33be
00000260: 3312 34be 49e7 bebd b438 a33d 6da2 c9bc
00000270: 258e 36be ddd1 ddbd 1407 a3bd 755b 0c3c
00000280: aecf 37bd ec93 16be 59fb 1bbd fa48 7f3d
00000290: cdfc 073c a1f7 eb3d 4d49 12bc 9f84 db3c
000002a0: c7ed d93d 3b64 103d 529b 4f3d 63dd 5bbd
000002b0: 6574 8cbd dd3b 83ba 6b9e 483d 9112 3db9
000002c0: 3db4 8bbd 0bf6 44be d526 22bd d78c 013d
000002d0: 4400 03be c151 2fbe 1ae3 b9bd 29e8 803d
000002e0: ef00 5a3d 9dbd 6abc c727 9dbc 7320 013d
000002f0: 0998 b23d c1ba 1f3d 3496 753d d84d c6bc
00000300: ae59 b7bc 6315 873d f17e c23c 1938 0d3d
00000310: 66a1 0dbd 121d 2a3d dadb d73d 30c8 bc3c
00000320: 7cb9 d93c 5b96 aebd 0139 f7bd fe2b 0ebd
00000330: 2a53 26bd 93d3 68bd 3b3f 24be 64a6 20bd
00000340: 2046 1f3d a975 ef3d 2062 a6bc 74ed f03b
00000350: e669 733d 7eb4 d83d e35b 5b3c 6aae b03d
00000360: c60f 3f3d 766f 68bd 3aea 33bc 7317 933d
00000370: c39c 06bd 3481 e23c 6eb3 223d 0525 bf3d
00000380: 776f c9bb 25b0 1d3d af77 94bc fa42 0bbc
00000390: 6001 a23c a540 f23d edb1 c43c 5393 13be
000003a0: bd85 0bbd 58a0 9b3c e982 5ebd 8bab 293d
000003b0: 5e8e ba3d 83b8 19bb 40d3 903d ad83 67bd
000003c0: 2ba6 243e 274b 603e ccf5 f83d 0f4d c9ba
000003d0: 92bc 7cbd 4712 113e 9a34 283d 5c5a c93c
000003e0: 3580 5e3d 8acd 3dbd 2617 f8bd 3891 663d
000003f0: 9f32 ec3d d948 9d3d 4e47 d63d ecb6 05bd

conv2.bias f4 [16]
0.091732614 -0.048004452 -0.0020800543 -0.009275413 -0.032261018 0.012218905 0.028552275 0.076242015
-0.039082393 -0.051802177 0.0920617 -0.06372404 0.0723322 0.013757167 0.028877249 0.04272425
00000000: 4fde bb3d 51a0 44bd 8551 08bb e7f7 17bc
00000010: 2124 04bd cd31 483c 76e6 e93c c624 9c3d
00000020: dc14 20bd 852e 54bd d88a bc3d c081 82bd
00000030: e822 943d be65 613c fb8f ec3c a0ff 2e3d

fc1.weight f4 [120, 256]
0.044262767 0.021894395 -0.049363315 0.0035265528 -0.04363548 0.041884433 -0.04039004 -0.035510357
0.053016957 -0.048537042 -0.071435645 -0.036718495 -0.005075301 -0.0048411004 -0.010798718 0.015496027
-0.029312097 -0.037468057 0.04510732 0.05430492 -0.029337652 0.0133895315 -0.046455313 -0.073862135
-0.007986364 -0.05090093 -0.067234606 -0.08930628 -0.03268509 -0.025562946 -0.023475772 -0.055787094
-0.041374184 0.017720634 0.043435913 0.026864972 0.022439158 -0.0042454763 0.058695473 -0.008829834
-0.04138415 -0.041159786 -0.027729472 -0.0151084885 -0.03661585 -0.04413738 -0.048888016 0.034053948
0.014259322 -0.021442693 -0.05282593 0.07111656 -0.029929535 0.02520943 -0.0045354464 -0.0022659493
0.005953437 0.061164435 0.076359496 0.006878048 -0.03797082 0.10343381 0.009017437 0.050669886
0.034229003 -0.0060239783 -0.00045259032 -0.045622513 0.028147915 0.019047778 -0.014609227 -0.001585774
0.021376403 0.050662126 0.00997432 0.027040703 -0.057312842 0.012600169 -0.033232443 0.03359672
-0.064817235 0.06912222 0.067282125 0.019022541 -0.07440795 -0.028670639 0.072950244 -0.0046933126
-0.02860726 0.046212833 0.06447152 0.050524537 0.063266896 0.08019276 0.059086807 -0.034244217
-0.024063416 0.059587847 0.06948552 0.0205324 0.0030543476 -0.043681648 -0.0007730115 0.041002072
0.047983978 0.03638532 0.06303033 -0.06963484 -0.011457876 0.052290846 -0.06816157 -0.057307385
-0.0124795055 -0.0068239872 -0.0030169815 0.04391974 -0.06577615 -0.006742061 0.06584314 -0.0073479936
0.041407757 -0.03166046 -0.0003004401 0.050621916 -0.045566514 -0.008640438 -0.054062642 -0.01832316
0.028991997 0.008098925 -0.072372995 -0.06723597 -0.007946502 0.04991414 -0.062330734 0.061187923
0.029292068 -0.017460478 -0.04395278 0.06028676 -0.002526508 -0.026056213 -0.009659191 -0.036360715
-0.05591941 -0.00045950196 -0.03842687 0.030278118 0.022968292 -0.009531781 0.05623838 0.04909203
0.034721512 0.03725126 0.036033005 -0.02610311 0.076336525 0.052575875 -0.012689366 0.07516151
0.011058908 -0.006932092 -0.02929038 0.03390284 -0.08608782 -0.048628863 -0.011761361 0.05619995
0.021215223 0.023064908 0.045507737 -0.033078846 0.085096896 0.0388031 0.05196924 0.015101689
-0.040300578 0.052365914 0.029391509 0.092260025 0.015001645 -0.016908206 -0.014615799 0.03290967
0.08688815 0.01184556 0.029816642 0.062402423 0.07681146 0.05874882 0.0031228412 0.04460658
-0.047355767 0.021997498 0.00882261 -0.041935388 0.035526603 0.048543863 -0.045703407 0.066148564
-0.037308976 -0.046889056 0.06788148 0.017609393 -0.0021194934 0.03250032 -0.0034565139 -0.025441041
0.070658565 0.046173736 -0.007282989 0.008530835 -0.07313594 0.024899513 -0.0067354185 0.03981183
0.0034883746 0.014021147 0.020785613 0.058202397 0.07193481 -0.06478049 0.0457727 0.074275814
-0.03896313 0.05270004 0.023755487 0.020556966 -0.012064116 -0.03376549 0.02006398 -0.052317448
-0.0155879455 -0.04340864 -0.044076253 0.022460783 -0.0075599737 -0.0121055115 0.059855137 0.025618764
-0.04520604 -0.01604987 -0.05558913 -0.0221502 -0.011557857 -0.04602621 0.06795616 -0.0374232
0.044962127 -0.008282219 0.016360663 0.039912064 -0.059738748 -0.04524588 0.05723738 0.03350591
00000000: e04c 353d e05b b33c 3031 4abd bd1d 673b
00000010: 1ebb 32bd 038f 2b3d 0770 25bd 4f73 11bd
00000020: 4f28 593d c7ce 46bd da4c 92bd 2266 16bd
00000030: b64e a6bb 18a2 9ebb 1bed 30bc 0ce3 7d3c
00000040: ec1f f0bc 1b78 19bd 74c2 383d d66e 5e3d
00000050: 8455 f0bc c45f 5b3c ed47 3ebd 0845 97bd
00000060: 3dd9 02bc 7e7d 50bd 4cb2 89bd 36e6 b6bd
00000070: cde0 05bd 6269 d1bc 4350 c0bc 0281 64bd
00000080: fa77 29bd dd2a 913c dbe9 313d ee13 dc3c
00000090: 53d2 b73c a31d 8bbb aa6a 703d 02ab 10bc
000000a0: 6d82 29bd 2a97 28bd eb28 e3bc 9889 77bc
000000b0: 80fa 15bd 66c9 34bd cd3e 48bd 277c 0b3d
000000c0: ee9f 693c 96a8 afbc 0160 58bd 8fa5 913d
000000d0: c92e f5bc 0284 ce3c 159e 94bb 5280 14bb
000000e0: 0d15 c33b 8f87 7a3d 5e62 9c3d 4061 e13b
000000f0: 4a87 1bbd 1bd5 d33d dfbd 133c 3a8b 4f3d
00000100: b633 0c3d cb64 c5bb a549 edb9 acde 3abd
00000110: 7596 e63c 160a 9c3c 8a5b 6fbc bfd9 cfba
00000120: 911d af3c 1783 4f3d 556b 233c 7784 dd3c
00000130: dfc0 6abd f070 4e3c be1e 08bd b79c 093d
00000140: e6be 84bd f38f 8d3d 36cb 893d 29d5 9b3c
00000150: 3263 98bd b0de eabc f066 953d 5cca 99bb
00000160: c659 eabc ab49 3d3d a509 843d d1f2 4e3d
00000170: 1392 813d 1a3c a43d 0205 723d aa43 0cbd
00000180: a420 c5bc 6312 743d 6d4e 8e3d 9033 a83c
00000190: 732b 483b 87eb 32bd eca3 4aba caf1 273d
000001a0: d98a 443d c608 153d 0c16 813d b69c 8ebd
000001b0: d1b9 3bbc ed2e 563d 4b98 8bbd 26bb 6abd
000001c0: d776 4cbc c19b dfbb 8db8 45bb 2fe5 333d
000001d0: a5b5 86bd 82ec dcbb c5d8 863d 70c7 f0bb
000001e0: 2e9b 293d 66ae 01bd 6384 9db9 ed58 4f3d
000001f0: f4a3 3abd a090 0dbc ca70 5dbd 741a 96bc
00000200: a080 ed3c 5bb1 043c 4b38 94bd 03b3 89bd
00000210: 0c32 02bc c572 4c3d 834e 7fbd 30a0 7a3d
00000220: ebf5 ef3c 4709 8fbc d507 34bd 40ef 763d
00000230: c593 25bb d773 d5bc 9541 1ebc f9ee 14bd
00000240: c00b 65bd 4fe9 f0b9 7e65 1dbd d109 f83c
00000250: 0028 bc3c 302b 1cbc 375a 663d b914 493d
00000260: 2538 0e3d c794 183d 5897 133d 30d6 d5bc
00000270: 5356 9c3d cd59 573d 0fe7 4fbc 47ee 993d
00000280: 6c30 353c 9a26 e3bb 61f2 efbc b4dd 0a3d
00000290: d04e b0bd 0f2f 47bd b9b2 40bc eb31 663d
000002a0: 8ccb ad3c 9ef2 bc3c 5266 3a3d af7d 07bd
000002b0: 4847 ae3d 00f0 1e3d b3dd 543d 136d 773c
000002c0: 3812 25bd a47d 563d 76c6 f03c d3f2 bc3d
000002d0: 76c9 753c 1483 8abc 1b77 6fbc 4acc 063d
000002e0: 6af2 b13d e113 423c 0842 f43c af99 7f3d
000002f0: 544f 9d3d 9aa2 703d 95a8 4c3b 64b5 363d
00000300: 1ff8 41bd 1934 b43c b58c 103c 71c4 2bbd
00000310: 5884 113d eed5 463d 7f33 3bbd e678 873d
00000320: 4cd1 18bd bd0e 40bd 7205 8b3d 9341 903c
00000330: 33e7 0abb 0e1f 053d ae86 62bb bb69 d0bc
00000340: 70b5 903d ac20 3d3d 24a6 eebb eac4 0b3c
00000350: 4cc8 95bd 10fa cb3c c9b4 dcbb bb11 233d
00000360: 379d 643b f4b8 653c 9746 aa3c a365 6e3d
00000370: 8f52 933d a2ab 84bd 287c 3b3d eb1d 983d
00000380: ce97 1fbd ffdb 573d de9a c23c 1567 a83c
00000390: 92a8 45bc af4d 0abd 375d a43c d24a 56bd
000003a0: 9564 7fbc 42cd 31bd 4d89 34bd adff b73c
000003b0: a8b9 f7bb 3256 46bc a92a 753d 71de d13c
000003c0: f829 39bd 047b 83bc 6db1 63bd 5674 b5bc
000003d0: 2a5d 3dbc fb85 3cbd 992c 8b3d 1249 19bd
000003e0: 352a 383d 25b2 07bc cc06 863c d57a 233d
000003f0: 9eb0 74bd be53 39bd be71 6a3d 7e3d 093d

fc1.bias f4 [120]
-0.010469489 -0.01361324 0.05665512 0.060890876 -0.04547526 0.012810331 0.006622563 0.053304274
0.02916955 0.0036793062 -0.05065399 -0.0042072632 -0.010364038 -0.035786264 -0.04842439 -0.032005247
0.019127207 0.010361558 -0.002740619 -0.0009518334 0.027108777 0.039784316 0.018177953 0.036387276
0.028106656 0.06545831 0.04542918 0.04818492 -0.0063635027 -0.02280479 0.015925864 0.064845525
0.02728235 -0.024191268 0.0036592756 0.030420264 -0.025998125 0.011252125 0.063448615 -0.023411507
0.05212473 -0.02890508 -0.057784136 -0.015986316 0.057718795 -0.0388977 0.05129794 -0.0436231
0.0057284813 0.038221367 0.0077678817 0.03978659 0.05602587 0.05380913 -0.02662561 -0.052789874
-0.04608905 0.03531092 0.004050431 -0.04663556 0.06626527 0.044583596 -0.006481971 -0.00015225337
0.0327917 -0.041787036 -0.030953232 -0.036745578 -0.03443116 -0.058197305 -0.03526205 -0.05534364
0.0012383867 0.04580069 -0.042769782 -0.029764457 -0.03830392 0.06199963 -0.0034075559 0.037203062
-0.0046265484 -0.037854422 -0.021681175 0.017490601 0.034406826 -0.033246044 -0.053417385 -0.025887825
-0.038932778 -0.00040697804 -0.06111917 0.035798516 -0.009243162 0.0072081857 -0.047023 -0.050664105
0.01956307 0.03686962 0.026865957 0.033977076 -0.007021998 0.020336535 -0.0149719035 0.060687967
0.025728667 0.057191182 0.0418984 0.0032005585 -0.047298845 0.059272293 0.03759598 0.034030803
-0.01385803 -0.059808336 -0.06126911 -0.0038165555 0.016439227 0.016043387 -0.029928705 -0.042073973
00000000: 3888 2bbc 110a 5fbc 330f 683d b668 793d
00000010: 4444 3abd 6ce2 513c 1602 d93b 9555 5a3d
00000020: fbf4 ee3c 8420 713b 8f7a 4fbd 15dd 89bb
00000030: edcd 29bc 9e94 12bd a758 46bd ef17 03bd
00000040: a9b0 9c3c 86c3 293c f59b 33bb 7584 79ba
00000050: 3a13 de3c e1f4 223d eee9 943c d30a 153d
00000060: ee3f e63c 020f 863d f313 3a3d 8d5d 453d
00000070: ee84 d0bb 1cd1 babc f576 823c bbcd 843d
00000080: 3c7f df3c c42c c6bc 75d0 6f3b eb33 f93c
00000090: 05fa d4bc d55a 383c 59f1 813d 7dc9 bfbc
000000a0: be80 553d 59ca ecbc 0faf 6cbd bcf5 82bc
000000b0: 8b6a 6c3d 3253 1fbd ca1d 523d 23ae 32bd
000000c0: fcb5 bb3b 028e 1c3d b789 fe3b 43f7 223d
000000d0: 627b 653d f666 5c3d f41d dabc 323a 58bd
000000e0: dfc7 3cbd 2fa2 103d 7ab9 843b ee04 3fbd
000000f0: 16b6 873d 4a9d 363d b766 d4bb 34a6 1fb9
00000100: 9750 063d e228 2bbd a291 fdbc 8882 16bd
00000110: b007 0dbd 4c60 6ebd f06e 10bd 03b0 62bd
00000120: 5d51 a23a 8199 3b3d 5e2f 2fbd 97d4 f3bc
00000130: 92e4 1cbd 53f3 7d3d 4d51 5fbb 3d62 183d
00000140: 4d9a 97bb 3d0d 1bbd b89c b1bc 7348 8f3c
00000150: 2cee 0c3d 012d 08bd 30cc 5abd b412 d4bc
00000160: fa77 1fbd ab5f d5b9 1858 7abd 77a1 123d
00000170: a270 17bc a532 ec3b 309b 40bd 2a85 4fbd
00000180: bb42 a03c 9904 173d ff15 dc3c 8c2b 0b3d
00000190: ca18 e6bb ce98 a63c b74c 75bc f293 783d
000001a0: edc4 d23c 4d41 6a3d a89d 2b3d 76c0 513b
000001b0: 6fbc 41bd 81c7 723d 3efe 193d e263 0b3d
000001c0: ca0c 63bc 96f9 74bd 51f5 7abd 2d1f 7abb
000001d0: 8fab 863c 6c6d 833c 0b2d f5bc c255 2cbd

fc2.weight f4 [84, 120]
0.001719461 -0.016342739 0.0049667843 0.004799547 0.08148799 -0.077005684 -0.06627263 -0.090727046
-0.022041753 0.05982023 -0.0024815516 0.038525652 0.0873726 -0.062957175 0.06615203 -0.048783496
-0.0021058747 0.08873207 -0.043011695 0.030124629 -0.05716596 -0.03862366 0.07053686 0.018996052
0.052576367 -0.022621252 0.08778833 -0.03633726 0.015271122 0.030296762 0.05448651 0.055547412
0.03432021 -0.030877039 -0.0628866 -0.054205317 0.0793044 0.035213348 -0.024748826 0.012100971
0.052408382 -0.061816853 -0.046639822 -0.054118 -0.055427454 -0.05795662 0.07785903 0.082022406
-0.05883692 -0.08459664 -0.085788965 0.011014162 0.075343035 -0.03914464 0.004002763 -0.017085362
0.062332977 -0.053918943 0.0705282 0.03584337 -0.021817466 -0.056633174 0.04385534 -0.037670903
-0.08802959 0.045683555 -0.0642679 0.05660865 -0.06697135 -0.022134524 -0.048066784 0.09359368
-0.0231864 -0.017769074 0.016963027 -0.04965201 -0.04433355 -0.06911765 0.042874664 -0.020871887
0.089505635 -0.025804779 0.09288228 -0.08167394 -0.068293735 -0.061717067 0.06860794 -0.08003624
-0.06535383 -0.021990858 0.058962904 -0.07012582 -0.061750624 -0.061841898 0.05382048 -0.05350769
-0.006482697 -0.030958405 -0.037565075 0.017289527 0.04325588 0.035418615 0.054910075 0.067947105
-0.035752732 0.046147663 0.087666675 0.027119774 0.011528218 0.06859157 -0.04296259 -0.0632385
0.031633276 -0.031973638 -0.041038293 0.027466629 -0.08359286 0.014730792 0.027930196 -0.08251015
0.09959312 0.017352972 0.024875617 0.021815006 0.05007945 -0.07742413 0.06639171 -0.017726269
0.06562899 0.07802671 -0.048910636 -0.087091275 0.08564817 0.013153146 -0.0116244005 0.011315636
-0.05771195 -0.076299 -0.027528398 0.088630415 0.023009956 0.045157406 -0.031470023 -0.113231525
0.012056791 -0.04698459 0.07471542 0.081925124 0.047524527 -0.04307938 -0.029680092 -0.055312313
-0.027356947 -0.035662744 -0.045920175 -0.030023288 -0.015480086 0.022083959 0.06732299 0.06437432
-0.022754807 -0.017853947 0.05436326 0.14346246 0.069827124 -0.064351685 -0.042157944 -0.06923569
-0.024710704 0.06748926 0.0021635755 -0.042596404 0.03553061 -0.034080617 -0.041560892 -0.002050854
-0.08419668 -0.02460905 0.029070074 -0.0742279 -0.0043221377 -0.06064516 0.0155121805 0.05710742
0.01785352 0.055459134 -0.062559694 -0.08431796 0.07507384 -0.007877278 0.077225395 -0.0440095
0.029142965 -0.052982666 -0.04216569 -0.05416909 0.042787474 0.0007013664 -0.043942224 0.066103175
-0.054285552 0.02026072 -0.05741927 0.044540327 0.08124015 -0.08812789 -0.009136118 0.08369834
-0.08394462 0.10734328 -0.08326207 0.0012883533 0.047477726 0.14986147 -0.055928215 -0.0075823828
-0.050440177 -0.08438417 -0.050590184 0.051299445 0.019519696 -0.04416238 -0.031832058 0.03865233
0.012246349 -0.060757484 0.039406464 -0.060037795 -0.07285838 -0.036708064 0.017166961 -0.046218187
-0.03546752 -0.017672205 0.041132078 0.035917286 0.088536754 0.03593508 0.04919797 -0.056942478
-0.051694315 -0.040121745 0.12245346 -0.085238785 0.121531904 0.013846404 -0.06169138 0.053244296
-0.012577861 0.08884658 0.050222225 -0.04252267 -0.10003294 -0.018574158 -0.08001277 -0.07423464
00000000: 8a5f e13a 35e1 85bc 68c0 a23b 8545 9d3b
00000010: 2de3 a63d 28b5 9dbd f2b9 87bd 1acf b9bd
00000020: e890 b4bc 0f06 753d 87a1 22bb 13cd 1d3d
00000030: 68f0 b23d b1ef 80bd b77a 873d 34d1 47bd
00000040: b702 0abb 29b9 b53d 082d 30bd edc7 f63c
00000050: db26 6abd d833 1ebd a175 903d 9c9d 9b3c
00000060: 515a 573d 3450 b9bc 5eca b33d 61d6 14bd
00000070: ba33 7a3c ea30 f83c 3f2d 5f3d af85 633d
00000080: 5993 0c3d d8f1 fcbc b1ca 80bd 6506 5ebd
00000090: 586a a23d df3b 103d 0dbe cabc 2743 463c
000000a0: 2caa 563d ab33 7dbd 6609 3fbd d6aa 5dbd
000000b0: e607 63bd ec63 6dbd 8e74 9f3d 5dfb a73d
000000c0: fbfe 70bd 0141 adbd 20b2 afbd be74 343c
000000d0: 734d 9a3d 2156 20bd 9c29 833b 9af6 8bbc
000000e0: dd50 7f3d 1cda 5cbd 1771 903d 7fd0 123d
000000f0: 8bba b2bc 30f8 67bd a8a1 333d ce4c 1abd
00000100: dc48 b4bd ae1e 3b3d e49e 83bd 79de 673d
00000110: 4628 89bd 7653 b5bc ade1 44bd 0bae bf3d
00000120: 68f1 bdbc 7390 91bc 0cf6 8a3c e85f 4bbd
00000130: 1997 35bd 8e8d 8dbd 589d 2f3d 85fb aabc
00000140: bb4e b73d 8b64 d3bc 1139 be3d ab44 a7bd
00000150: 96dd 8bbd 09cb 7cbd 5282 8c3d 0aea a3bd
00000160: 3bd8 85bd 2c26 b4bc 1683 713d 209e 8fbd
00000170: 39ee 7cbd ee4d 7dbd dd72 5c3d e12a 5bbd
00000180: ce6c d4bb 7b9c fdbc d6dd 19bd c4a2 8d3c
00000190: 142d 313d 1c13 113d 63e9 603d da27 8b3d
000001a0: 7571 12bd 5505 3d3d 968a b33d 4a2a de3c
000001b0: dae0 3c3c bd79 8c3d 8af9 2fbd 3083 81bd
000001c0: e591 013d caf6 02bd c517 28bd b201 e13c
000001d0: bc32 abbd 6b59 713c decd e43c 15fb a8bd
000001e0: 7af7 cb3d d227 8e3c f3c7 cb3c 62b5 b23c
000001f0: 1c20 4d3d 8b90 9ebd 60f8 873d ae36 91bc
00000200: 7e68 863d 78cc 9f3d 8556 48bd e95c b2bd
00000210: 4f68 af3d 4b80 573c 4574 3ebc 3865 393c
00000220: 5e63 6cbd a642 9cbd 3c83 e1bc dd83 b53d
00000230: 607f bc3c f9f6 383d b6e6 00bd eee5 e7bd
00000240: d989 453c ea72 40bd 6604 993d 5cc8 a73d
00000250: 14a9 423d 0174 30bd aa23 f3bc 2a8f 62bd
00000260: ad1b e0bc 1913 12bd cb16 3cbd 66f3 f5bc
00000270: 30a0 7dbc 6be9 b43c a3e0 893d afd6 833d
00000280: 4a68 babc 7142 92bc 02ac 5e3d d3e7 123e
00000290: 8601 8f3d d1ca 83bd cfad 2cbd 71cb 8dbd
000002a0: 1a6e cabc cf37 8a3d c6ca 0d3b 9179 2ebd
000002b0: 8b88 113d 1e98 0bbd c13b 2abd 9f67 06bb
000002c0: 4f6f acbd eb98 c9bc 5d24 ee3c cc04 98bd
000002d0: b8a0 8dbb 0f67 78bd cd26 7e3c 78e9 693d
000002e0: 8c41 923c 1e29 633d 4c1f 80bd e5ae acbd
000002f0: 50c0 993d b30f 01bc 5928 9e3d 4e43 34bd
00000300: 3abd ee3c 5a04 59bd eeb5 2cbd 68e0 5dbd
00000310: eb41 2f3d e7db 373a c3fc 33bd 1a61 873d
00000320: 875a 5ebd cff9 a53c 7830 6bbd eb6f 363d
00000330: 3c61 a63d 657c b4bd a8af 15bc 096a ab3d
00000340: 28eb abbd cbd6 db3d 4e85 aabd f7dd a83a
00000350: 0178 423d 4975 193e fc14 65bd a375 f8bb
00000360: 5c9a 4ebd 9cd1 acbd a737 4fbd 5e1f 523d
00000370: c5e7 9f3c 9de3 34bd 5562 02bd e851 1e3d
00000380: e9a4 483c d7dc 78bd ac68 213d 31ea 75bd
00000390: c636 95bd 325b 16bd baa1 8c3c 484f 3dbd
000003a0: 6446 11bd 4dc5 90bc 1c7a 283d 011e 133d
000003b0: c252 b53d aa30 133d d083 493d 843c 69bd
000003c0: 6bbd 53bd b356 24bd e1c8 fa3d ac91 aebd
000003d0: b8e5 f83d 07dc 623c 1ab0 7cbd b116 5a3d
000003e0: 5f13 4ebc 32f5 b53d d2b5 4d3d 402c 2ebd
000003f0: 12de ccbd d528 98bc bcdd a3bd 5508 98bd

fc2.bias f4 [84]
0.0083409045 0.02587756 -0.027009446 -0.098333925 -0.030785525 0.027660735 -0.032143984 -0.06916893
-0.0707076 0.012772496 0.08014977 -0.04655144 0.06563016 0.021209462 0.047283642 0.04621671
0.08642122 0.0829801 0.07249469 0.0089477105 -0.06652876 -0.025831118 -0.01049087 -0.0783451
-0.08581014 -0.014349706 -0.048820075 0.030248875 0.058944736 -0.008480059 0.084254175 0.001572091
0.012527529 0.040184475 0.059993554 -0.022503093 -0.060978167 -0.0005514894 0.10463439 0.021555942
-0.05849695 -0.07901426 0.056259453 0.11091369 -0.06388888 0.09481413 0.04525787 -0.05522821
0.055567946 -0.006026283 0.01898031 0.09354092 -0.06346335 -0.060579754 -0.09510452 0.02226386
0.087289006 -0.0615389 0.044485617 -0.081478305 0.056175217 0.020119216 -0.06955956 -0.0389901
-0.057234287 -0.037097566 -0.063437 0.06585513 0.03411928 -0.0678495 0.06660878 -0.09024551
-0.041824583 -0.059323955 -0.081771865 -0.05248214 -0.02683039 -0.07636563 -0.013537694 0.046275124
0.0125068715 -0.042112052 0.034167714 -0.073277675
00000000: 4aa8 083c 2dfd d33c ea42 ddbc 4c63 c9bd
00000010: ed31 fcbc c498 e23c 69a9 03bd 71a8 8dbd
00000020: 25cf 90bd bb43 513c 9025 a43d b9ac 3ebd
00000030: 1b69 863d 77bf ad3c 7eac 413d bc4d 3d3d
00000040: 9cfd b03d 78f1 a93d 1978 943d 6b99 123c
00000050: 3b40 88bd c89b d3bc e6e1 2bbc 6573 a0bd
00000060: 3abd afbd 071b 6bbc 8ff7 47bd 7dcc f73c
00000070: 0970 713d f2ef 0abc 748d ac3d 9f0e ce3a
00000080: 4440 4d3c 7a98 243d cdbb 753d 6858 b8bc
00000090: 3ec4 79bd d491 10ba 8e4a d63d 1696 b03c
000000a0: 7f9a 6fbd 3ad2 a1bd 5070 663d b726 e33d
000000b0: 2cd8 82bd e92d c23d 5160 393d fa36 62bd
000000c0: 379b 633d 2078 c5bb 987c 9b3c 6292 bf3d
000000d0: 13f9 81bd 7a22 78bd 29c6 c2bd b362 b63c
000000e0: 94c4 b23d 3710 7cbd 8d36 363d 19de a6bd
000000f0: fc17 663d 0ed1 a43c 3e75 8ebd 15b4 1fbd
00000100: 806e 6abd 9ef3 17bd 42eb 81bd 0edf 863d
00000110: a8c0 0b3d aef4 8abd 2f6a 883d a3d2 b8bd
00000120: 4150 2bbd adfd 72bd 0278 a7bd 83f7 56bd
00000130: 68cb dbbc 9565 9cbd 34cd 5dbc fc8a 3d3d
00000140: 9fe9 4c3c b07d 2cbd 72f3 0b3d 9b12 96bd

fc3.weight f4 [10, 84]
0.051420614 0.14069241 -0.031220114 -0.09019426 -0.03214476 -0.10560341 0.07674403 -0.0353612
0.06969336 -0.07688753 -0.19022465 0.039950382 0.014982951 0.08460373 -0.119727276 0.08786946
-0.04773786 -0.111982994 0.046418834 -0.10103361 0.10202989 -0.035807155 0.17698038 0.09048217
0.043668855 0.015684556 0.087256685 -0.17345624 0.045527652 0.12299947 -0.030679794 0.115021005
-0.05528392 -0.16871543 0.13322592 0.0024417604 -0.05107474 -0.01174002 0.15342936 0.057850394
-0.05785223 -0.07277158 0.23419188 -0.10884015 0.05195391 -0.10323713 0.033042405 -0.11036818
-0.17595144 0.22249487 -0.062420417 -0.058360167 -0.06979276 -0.036691207 -0.07002367 0.26765501
0.19375011 -0.14317095 0.1258338 0.032422118 -0.06634925 -0.17885755 0.028829241 0.05151621
0.11058858 0.03408626 -0.090426266 -0.11882078 0.14033866 -0.06061658 0.0049475674 -0.074074686
-0.01359152 -0.07051974 0.026305597 0.054992117 -0.2167981 -0.018963046 0.12779565 -0.06059856
-0.23189877 -0.10029421 -0.041949075 0.07885576 -0.06267935 -0.017018424 0.04298519 0.037898507
0.021260269 0.07573387 -0.06117206 -0.05446766 0.081510745 -0.03162737 -0.15018833 0.042412575
0.051739495 0.19443317 0.062340382 0.07847232 0.18075386 0.16682649 -0.029978154 -0.06600695
-0.008536997 0.095942795 -0.1317796 -0.034576263 -0.08479059 -0.04213773 -0.0010531656 -0.2682528
-0.12219157 -0.14659904 -0.07078258 -0.30394897 -0.025135536 -0.18344185 -0.002585926 0.014078497
-0.161055 -0.19364265 -0.19776924 0.045187306 -0.033470944 -0.025737038 -0.100822195 0.19178051
-0.17595217 0.08198052 -0.10624814 0.19721268 -0.054550637 0.11835863 0.0003010796 0.19570024
0.04886888 0.0693491 0.021835279 -0.10336003 0.095074005 -0.12908387 -0.006009943 -0.13494392
-0.023788711 -0.044580918 -0.15316305 -0.057249002 -0.03469125 0.017216122 -0.033458497 0.24200264
0.13850178 -0.07792498 0.15364073 -0.09205133 0.096370764 0.08358486 0.08291497 0.0011432692
-0.12850395 -0.023425901 -0.14291796 -0.119483784 0.11496931 -0.04648728 0.19337463 -0.28480223
-0.03852948 0.020422405 -0.13926561 0.005938297 0.020299358 0.12484492 0.18272077 0.08328062
0.015564967 -0.10307101 0.01902433 0.1477927 0.052316945 -0.10707057 -0.06256137 0.14927606
-0.17248498 0.04512284 -0.051441982 0.023839047 -0.05295976 -0.16398588 -0.18999235 0.10950663
-0.107699074 -0.16701129 -0.09473854 -0.16219482 0.17452101 -0.047656827 -0.16040434 0.18574917
-0.08976924 -0.010050054 0.078758955 -0.021856016 0.054740746 0.083273806 0.103052884 -0.0093586985
0.08176694 -0.05256947 -0.21549326 0.08648897 -0.08905541 -0.22073822 0.013655265 0.27118248
-0.22563301 0.19369678 -0.0012446615 0.055284172 0.052418135 0.09999602 0.053009182 0.04857703
0.10531021 0.18861394 -0.14430912 0.06550798 0.17539619 0.15192011 -0.024267193 -0.017614014
-0.01294055 0.082495 -0.040732287 -0.08011185 -0.1429997 -0.021019237 -0.14429374 -0.027892346
0.036247298 0.09288029 0.047208376 0.10781629 -0.020702742 0.045567937 0.07874627 -0.07083861
-0.016475717 0.04923471 0.07191682 -0.14543998 0.10693281 0.051234666 0.024217557 0.06605361
00000000: 6c9e 523d ac11 103e 53c1 ffbc c5b7 b8bd
00000010: 39aa 03bd 9a46 d8bd f92b 9d3d e8d6 10bd
00000020: 64bb 8e3d 3677 9dbd 40ca 42be 03a3 233d
00000030: 0d7b 753c b844 ad3d 9333 f5bd e7f4 b33d
00000040: c688 43bd 5757 e5bd ad21 3e3d b6ea cebd
00000050: 0cf5 d03d 86aa 12bd 583a 353e b74e b93d
00000060: 1dde 323d e67c 803c a2b3 b23d 839e 31be
00000070: 347b 3a3d 25e7 fb3d 3154 fbbc 2290 eb3d
00000080: 6471 62bd bdc3 2cbe 606c 083e f105 203b
00000090: bf33 51bd 3659 40bc 961c 1d3e 89f4 6c3d
000000a0: 76f6 6cbd 4409 95bd ffcf 6f3e 96e7 debd
000000b0: a0cd 543d fd6d d3bd 7957 073d b608 e2bd
000000c0: 9d2c 34be b2d5 633e 8dac 7fbd 120b 6fbd
000000d0: 82ef 8ebd 8549 16bd 9268 8fbd 140a 893e
000000e0: 6e66 463e 689b 12be 93da 003e 0ecd 043d
000000f0: 1ee2 87bd 6f26 37be 4d2b ec3c a902 533d
00000100: 447c e23d 099e 0b3d 6831 b9bd 4f58 f3bd
00000110: f0b4 0f3e 1749 78bd 341f a23b 78b4 97bd
00000120: f7ae 5ebc a76c 90bd d67e d73c 6a3f 613d
00000130: 5200 5ebe 6458 9bbc dddc 023e 3236 78bd
00000140: df76 6dbe 0d67 cdbd cbd2 2bbd 217f a13d
00000150: 085e 80bd 396a 8bbc 3d11 303d 773b 1b3d
00000160: 042a ae3c 5c1a 9b3d 8e8f 7abd 7b19 5fbd
00000170: 1bef a63d b38b 01bd f8ca 19be cfb8 2d3d
00000180: cbec 533d 7d19 473e a158 7f3d 19b6 a03d
00000190: 8a17 393e 90d4 2a3e bf94 f5bc a72e 87bd
000001a0: c3de 0bbc a87d c43d 3bf1 06be d79f 0dbd
000001b0: b0a6 adbd 9d98 2cbd 600a 8aba 6e58 89be
000001c0: 933f fabd 0f1e 16be 75f6 90bd 339f 9bbe
000001d0: 0ae9 cdbc 2ed8 3bbe a478 29bb 7fa9 663c
000001e0: 9aeb 24be 424a 46be 0584 4abe 5316 393d
000001f0: d418 09bd 7bd6 d2bc de7b cebd 1c62 443e
00000200: ce2c 34be 67e5 a73d a098 d9bd 1ff2 493e
00000210: 7d70 5fbd 0266 f23d 38da 9d39 a565 483e
00000220: bc2a 483d e706 8e3d e6df b23c 6cae d3bd
00000230: 29b6 c23d 902e 04be 0eef c4bb bd2e 0abe
00000240: 8be0 c2bc 7b9a 36bd c6d6 1cbe ee7d 6abd
00000250: 6a18 0ebd d308 8d3c c70b 09bd 8acf 773e
00000260: 69d3 0d3e 2297 9fbd ff53 1d3e 6885 bcbd
00000270: 095e c53d 8a2e ab3d 53cf a93d c0d9 953a
00000280: 8a96 03be ade7 bfbc 1659 12be eab3 f4bd
00000290: 0875 eb3d 7269 3ebd 0004 463e 99d1 91be
000002a0: 17d1 1dbd e34c a73c a59b 0ebe 0c96 c23b
000002b0: d74a a63c b2ae ff3d 271b 3b3e 088f aa3d
000002c0: 3404 7f3c e516 d3bd e9d8 9b3c f856 173e
000002d0: 4b4a 563d d147 dbbd 2d20 80bd d3db 183e
000002e0: e79f 30be bad2 383d d4b4 52bd 1b4a c33c
000002f0: 55ec 58bd eaeb 27be 5b8d 42be 0345 e03d
00000300: 5591 dcbd 0205 2bbe 4806 c2bd 6616 26be
00000310: a3b5 323e ce33 43bd 0941 24be 0835 3e3e
00000320: efd8 b7bd fba8 24bc 604c a13d 630b b3bc
00000330: d537 603d 758b aa3d 640d d33d 3a55 19bc
00000340: 6d75 a73d 1653 57bd 44aa 5cbe 2121 b13d
00000350: af62 b6bd 3309 62be 55ba 5f3c 6ed8 8a3e
00000360: 570c 67be 7358 463e e923 a3ba a871 623d
00000370: 66b4 563d b7ca cc3d 2820 593d b5f8 463d
00000380: e1ac d73d 0324 413e c5c5 13be 0c29 863d
00000390: 0f9b 333e f290 1b3e fecb c6bc 444b 90bc
000003a0: 9a04 54bc 23f3 a83d e6d6 26bd ae11 a4bd
000003b0: 836e 12be 8930 acbc bdc1 13be 7d7e e4bc
000003c0: 0c78 143d 0538 be3d 925d 413d c9ce dc3d
000003d0: cc98 a9bc 72a5 3a3d b945 a13d d513 91bd
000003e0: 15f8 86bc 56aa 493d 2049 933d 38ee 14be
000003f0: 97ff da3d 71db 513d e663 c63c 1d47 873d

fc3.bias f4 [10]
-0.05855136 0.06724142 0.076734185 0.020313015 0.059600197 -0.06859576 -0.09020073 -0.020484617
0.08414722 -0.045657374
00000000: 8dd3 6fbd dfb5 893d d026 9d3d 7b67 a63c
00000010: 561f 743d ef7b 8cbd 29bb b8bd 5bcf a7bc
00000020: 6155 ac3d 3a03 3bbd
